Heart_disease.pt (torch, 5527 bytes, 6 tensors)

weight f4 [20, 11]
-0.12184331 0.060063124 0.13160905 -0.2813314 0.052959114 0.21627593 -0.29649574 -0.029184699
0.095965356 0.21197367 -0.12493318 0.0101648625 -2.536068 1.3625079 0.2371859 0.14657868
0.5445101 0.52345437 -0.14488214 2.091276 -1.407461 2.4160602 -0.22298153 0.28044283
-0.23126608 -0.15279037 0.035612285 0.21356505 -0.20785871 -0.023870677 -0.18711714 -0.27658406
-0.27823192 0.108514756 0.27296275 0.0927065 -0.123966426 -0.1964677 0.19886637 0.30054802
-0.21986446 0.2894385 -0.08811228 0.20575953 -0.018859096 0.18199493 -2.2133393 0.09615154
0.111274906 6.480116 -1.7077806 -0.008616518 -0.9070497 0.22686434 -9.076652 -0.10323081
3.5039895 -4.2400384 -0.6278335 0.27980468 -2.4799428 -1.1433862 0.031176787 -11.51681
-3.0730252 -4.409392 0.23297955 8.204156 0.21718639 0.10605936 -0.27389953 14.1044855
-5.223823 -0.2771855 5.105283 -1.220772 4.9331517 -0.0709389 0.033576384 -0.15245824
-0.06182338 -0.27218124 -0.274433 0.15723939 -0.08852948 -0.0782703 -0.35318008 0.12846847
-0.7305377 -1.4354714 0.49378708 -0.3202232 0.20947036 -4.347692 -1.9608175 -0.03763426
0.5031143 -3.0882468 -0.5353285 -0.11798934 2.220638 -0.4994994 -0.08647288 0.1192063
-1.5967263 -0.57563305 0.23327456 -0.9306062 -0.87809765 -2.6556656 -0.16931885 -0.15315355
0.08384125 0.056361105 0.0462464 -0.22285786 -0.041800674 -0.29613194 -0.0026932089 -0.26094222
0.09333084 0.14405237 -0.09447771 -0.045343537 -0.1809302 -0.06354596 -0.29201087 -0.21904714
-0.14591882 0.094399095 -0.3969451 -0.25083795 -0.016256785 -2.9866414 0.84202284 0.15249242
0.007928215 -0.15489608 -0.5925722 -0.003556097 1.8342327 0.5117158 2.214318 -0.027864799
-0.8876224 0.73683196 0.012761044 -0.019795937 5.006838 0.19338846 0.12676266 1.0322964
0.2309931 2.374783 -0.028587263 -2.8945608 0.87980574 -0.031050265 -0.026344148 1.2551024
0.14850913 0.12460473 0.28874356 0.94974965 1.2788982 -0.22256158 0.0612097 -0.22704135
-0.080744386 -0.19390257 0.07056219 0.12206483 0.048493665 -0.384274 0.13213883 -0.08656548
-0.044464506 -2.7334192 0.48423934 -0.1546473 0.23971243 -1.3839127 0.8874671 0.012563159
0.87875223 0.80762124 3.0442522 0.17340818 -0.23788181 -0.23952846 -0.13956437 -0.13662405
-0.033712283 -0.13789748 -0.12242203 0.068756625 0.03404931 -0.17738646 0.02580817 1.8121754
-1.0621353 0.27377272 0.16844098 0.23815508 0.5940182 -0.18786874 -2.2733965 -0.46299568
-1.4294063 0.16080798 -3.7545664 -1.6701436 0.062214557 -0.24306323 -7.159714 -2.4110281
-0.036751017 1.2303112 0.5286384 5.6221385
00000000: fc88 f9bd c004 763d 86c4 063e ab0a 90be
00000010: a8eb 583d 7077 5d3e 4ace 97be c014 efbc
00000020: 7c89 c43d a00f 593e f8dc ffbd 868a 263c
00000030: f04e 22c0 a966 ae3f dce0 723e b918 163e
00000040: 0465 0b3f 1b01 063f fc5b 14be 77d7 0540
00000050: af27 b4bf bba0 1a40 4555 64be 3496 8f3e
00000060: 04d1 6cbe 1475 1cbe 30de 113d ccb0 5a3e
00000070: ead8 54be 708c c3bc a39b 3fbe 6d9c 8dbe
00000080: 6a74 8ebe fc3c de3d c6c1 8b3e e8dc bd3d
00000090: 1ce2 fdbd d42e 49be a0a3 4b3e 6ee1 993e
000000a0: 2624 61be 4831 943e 3674 b4bd a0b2 523e
000000b0: 647e 9abc e15c 3a3e 5aa7 0dc0 19eb c43d
000000c0: 19e4 e33d 1c5d cf40 8e98 dabf 4c2c 0dbc
000000d0: 6934 68bf 204f 683e f739 11c1 ad6a d3bd
000000e0: 5d41 6040 65ae 87c0 b2b9 20bf 8f42 8f3e
000000f0: 62b7 1ec0 7b5a 92bf 7666 ff3c db44 38c1
00000100: 72ac 44c0 bd19 8dc0 3192 6e3e 3944 0341
00000110: 1c66 5e3e a635 d93d 8f3c 8cbe f9ab 6141
00000120: 8f29 a7c0 42eb 8dbe 7a5e a340 4242 9cbf
00000130: 61dc 9d40 6a48 91bd 6487 093d 031e 1cbe
00000140: 833a 7dbd 575b 8bbe 7b82 8cbe 5d03 213e
00000150: f24e b5bd 2e4c a0bd 05d4 b4be 3d8d 033e
00000160: 8504 3bbf 87bd b7bf a9d1 fc3e 4cf4 a3be
00000170: 667f 563e 4b20 8bc0 11fc fabf 6226 1abd
00000180: 19cc 003f d6a5 45c0 4a0b 09bf 65a4 f1bd
00000190: ef1e 0e40 63be ffbe b118 b1bd 6f22 f43d
000001a0: 8761 ccbf b05c 13bf 87df 6e3e 353c 6ebf
000001b0: 02cb 60bf 6df6 29c0 ec61 2dbe 49d4 1cbe
000001c0: f6b4 ab3d e7da 663d dd6c 3d3d da34 64be
000001d0: 2f37 2bbd 9b9e 97be 8c80 30bb 389a 85be
000001e0: 3d24 bf3d 7782 133e 887d c1bd 25ba 39bd
000001f0: c445 39be 6224 82bd 7382 95be e54d 60be
00000200: be6b 15be 5054 c13d 633c cbbe d56d 80be
00000210: f32c 85bc 2225 3fc0 cf8e 573f f926 1c3e
00000220: 58e5 013c 149d 1ebe d0b2 17bf 680d 69bb
00000230: 23c8 ea3f cfff 023f 63b7 0d40 b844 e4bc
00000240: 393b 63bf 05a1 3c3f b313 513c 172b a2bc
00000250: 0438 a040 a007 463e 12ce 013e 4a22 843f
00000260: 7589 6c3e 72fc 1740 d62f eabc 7c40 39c0
00000270: f33a 613f 205d febc afcf d7bc 32a7 a03f
00000280: c712 183e c430 ff3d 32d6 933e cb22 733f
00000290: f0b2 a33f 2fe7 63be 06b7 7a3d 877d 68be
000002a0: 505d a5bd 658e 46be e982 903d 20fd f93d
000002b0: 4ba1 463d 90bf c4be 674f 073e 3e49 b1bd
000002c0: 6a20 36bd 57f0 2ec0 38ee f73e dd5b 1ebe
000002d0: 2d77 753e 0d24 b1bf 0b31 633f b5d5 4d3c
000002e0: e8f5 603f 44c0 4e3f 07d5 4240 ea91 313e
000002f0: 4a97 73be f346 75be f6e9 0ebe 2de7 0bbe
00000300: e415 0abd ff34 0dbe 67b8 fabd 46d0 8c3d
00000310: 4a77 0b3d cca4 35be a86b d33c 5df5 e73f
00000320: 0df4 87bf f02b 8c3e cb7b 2c3e edde 733e
00000330: 9411 183f aa60 40be 547f 11c0 c50d edbe
00000340: c9f6 b6bf d9aa 243e d14a 70c0 44c7 d5bf
00000350: b1d4 7e3d 91e5 78be 611c e5c0 494e 1ac0
00000360: 3c88 16bd d67a 9d3f d954 073f 8fe8 b340

bias f4 [20]
0.0023741424 -0.7644713 0.13415179 0.049351186 0.98474777 -1.0712528 1.6760596 -0.0424266
-0.2089912 1.5008452 -0.10914979 -0.32967126 -1.5804275 -1.8835787 -0.9919524 -0.22622031
-2.23871 -0.05393687 0.7016633 -3.2628508
00000000: 8097 1b3b 64b4 43bf 165f 093e 7824 4a3d
00000010: 6e18 7c3f d01e 89bf 1f89 d63f 84c7 2dbd
00000020: ca01 56be b21b c03f ed89 dfbd acca a8be
00000030: 734b cabf 1b19 f1bf 98f0 7dbf 4ca6 67be
00000040: 0647 0fc0 e8ec 5cbd 35a0 333f 8cd2 50c0

weight f4 [20, 20]
-0.044385076 -0.17163408 -0.10571186 -0.087325245 0.030254036 -0.06250866 0.18114716 -0.042947307
0.08771208 0.048375726 -0.14321646 0.020471975 -0.2139941 0.0014305413 -0.2222285 -0.19236465
-0.05968027 0.024045825 -0.035571292 -0.21983516 -0.034325793 0.18409364 -0.14493681 0.18516576
-0.9620871 0.15220737 0.9132159 0.15361783 -0.13362385 0.1607903 -0.05898643 -0.061409496
0.17975527 -0.0011351858 -0.19410609 0.037459154 0.24617939 -0.024437109 -0.44357318 0.72339284
-0.20720617 -0.46756625 -0.061265767 0.021592066 0.28258434 0.1472631 0.17338514 0.08798531
0.0069972393 0.32192573 -0.12791914 0.2901778 -0.2999731 0.32832614 0.2775343 -0.06990462
0.09461245 -0.11503299 -0.84267145 -1.095306 0.19187763 -0.06097605 -0.1148928 -0.19701217
-0.1558303 0.023854245 0.0083639035 0.12141611 0.15674403 -0.15842204 -0.12156643 0.13191035
0.05574741 -0.065680355 0.1075112 0.044259977 -0.16859517 -0.07151621 -0.008617643 -0.16183245
0.046102285 0.2030103 -0.006805286 -0.063359246 -0.01793619 -0.44658455 1.9404626 -0.13379095
0.95009565 -0.22710055 0.17965323 -0.07245004 0.15494032 0.2307438 0.08951687 -0.07134034
0.20056106 0.048759747 -0.061740305 -0.3941632 -0.025357082 0.022460302 0.22090986 -0.0273972
-0.20809841 -0.22237268 -0.24373788 0.044051304 -0.15734997 -0.098160386 0.04954475 -0.03476031
0.07307413 0.011778524 -0.27496946 0.19321309 0.11068031 -0.14626223 -0.22667499 0.08277569
0.031894714 0.006819351 0.061667114 -0.10475393 -0.030121043 -0.0061756736 0.27595872 0.21266532
0.13971214 -0.107959725 -0.27642685 0.17662326 -0.19837661 0.014304014 0.1421165 -0.16552082
-0.20362651 -0.09778855 -0.20963296 0.082083315 0.041725367 -0.14478308 -0.02189447 -0.06006828
-0.051687524 0.05532907 -0.050637733 0.13076474 0.15306655 -0.026459912 -0.2553259 -0.1922481
-0.24664733 -0.10822515 -0.017994327 -0.17077516 -0.25087592 -0.057501435 0.12473058 -0.056594387
-0.22084902 0.15494496 0.20338741 0.21492681 -0.38907534 -0.770721 0.9730952 0.045819774
1.4780807 0.030370574 0.080684535 -0.026136147 0.262514 -0.07645605 -0.012941061 -0.12503147
0.12162594 -0.13583691 0.10643883 0.6413611 0.1970995 -0.15218714 0.19919765 -0.07777999
-0.21155742 0.1301935 -0.21997353 -0.10574116 0.06925008 0.014128105 -0.050514445 -0.032716036
-0.059742052 -0.24937306 0.06361187 -0.019658133 -0.15190405 0.19643205 -0.21548744 0.16869581
-0.09754203 0.12682566 -0.1338457 -0.13838613 -0.49864736 0.28739592 -0.06505957 0.12912084
-0.30942905 -0.18900895 0.085304424 -0.11871199 -0.04336265 0.34067136 0.09628454 -0.002595218
0.33663943 0.022838805 -0.055597737 -0.63324964 -0.15390933 -0.16304815 0.06962392 0.20069757
-0.18897907 -0.057699934 -0.02452831 -0.22030887 0.07608846 0.017846338 0.073129505 -0.13672052
0.042456042 -0.1942001 0.021184536 -0.025962878 -0.051628977 -0.038511097 -0.24524689 0.1364571
-0.16520143 -0.22516438 0.14320812 0.15455255 0.023658823 -0.006267538 0.00905928 -0.08118516
0.19707157 -0.02401745 -0.09239508 -0.18259168 -0.13559401 -0.16218835 0.15637903 0.16741842
00000000: 20cd 35bd d8c0 2fbe 767f d8bd 94d7 b2bd
00000010: 50d7 f73c 8a04 80bd a47e 393e 84e9 2fbd
00000020: 64a2 b33d a025 463d 56a7 12be d8b4 a73c
00000030: 4521 5bbe 0081 bb3a de8f 63be 3dfb 44be
00000040: 4c73 74bd c0fb c43c 34b3 11bd 781c 61be
00000050: 3499 0cbd 0b83 3c3e 516a 14be 189c 3d3e
00000060: 574b 76bf 40dc 1b3e 84c8 693f fe4d 1d3e
00000070: b1d4 08be 36a6 243e c19b 71bd 8688 7bbd
00000080: c411 383e 84ca 94ba bfc3 46be c56e 193d
00000090: 7316 7c3e 5530 c8bc 061c e3be 4630 393f
000000a0: db2d 54be d864 efbe d0f1 7abd d8e1 b03c
000000b0: e5ae 903e 23cc 163e e08b 313e a431 b43d
000000c0: 1949 e53b 73d3 a43e 3cfd 02be 2f92 943e
000000d0: 1396 99be 5d1a a83e fa18 8e3e 272a 8fbd
000000e0: 2cc4 c13d 6b96 ebbd 51b9 57bf fd32 8cbf
000000f0: 927b 443e 06c2 79bd eb4c ebbd 8fbd 49be
00000100: fa91 1fbe fa69 c33c c108 093c 02a9 f83d
00000110: 8281 203e 6339 22be d2f7 f8bd 8213 073e
00000120: 6557 643d 6c83 86bd d52e dc3d f349 353d
00000130: 36a4 2cbe 1777 92bd 0431 0dbc 68b7 25be
00000140: c0d5 3c3d efe1 4f3e e0fe debb 7ec2 81bd
00000150: ebee 92bc bba6 e4be 1461 f83f 7f00 09be
00000160: 7839 733f 0c8d 68be 04f7 373e b060 94bd
00000170: ada8 1e3e 1a48 6c3e 9f54 b73d e21a 92bd
00000180: e15f 4d3e 4db8 473d 67e3 7cbd c2cf c9be
00000190: a8b9 cfbc abfe b73c 3236 623e 1870 e0bc
000001a0: c017 55be aab5 63be 6c96 79be 246f 343d
000001b0: 5a20 21be 5008 c9bd 70ef 4a3d d460 0ebd
000001c0: e4a7 953d b6fa 403c ccc8 8cbe a7d9 453e
000001d0: 5cac e23d c4c5 15be 7d1d 68be 4d86 a93d
000001e0: 08a4 023d dd74 df3b a896 7c3d 3a89 d6bd
000001f0: 68c0 f6bc 4e5d cabb 764a 8d3e f0c4 593e
00000200: b310 0f3e fd19 ddbd d287 8dbe badc 343e
00000210: 3d23 4bbe 625b 6a3c fd86 113e 4a7e 29be
00000220: 7883 50be 5d45 c8bd 06aa 56be 4c1b a83d
00000230: 38e8 2a3d 0442 14be 085c b3bc 280a 76bd
00000240: 4cb6 53bd bca0 623d 8369 4fbd 31e7 053e
00000250: 7abd 1c3e 75c2 d8bc 14ba 82be b0dc 44be
00000260: 1e91 7cbe 26a5 ddbd d768 93bc afdf 2ebe
00000270: cf72 80be a086 6bbd bf72 ff3d 84cf 67bd
00000280: 3f26 62be e4a9 1e3e ca44 503e c615 5c3e
00000290: e234 c7be f94d 45bf c41c 793f 84ad 3b3d
000002a0: c031 bd3f b6cb f83c ef3d a53d 791b d6bc
000002b0: 3c68 863e fd94 9cbd be06 54bc 4008 00be
000002c0: 0517 f93d d518 0bbe 9afc d93d 3e30 243f
000002d0: 74d4 493e f2d6 1bbe 78fa 4b3e 1e4b 9fbd
000002e0: 82a2 58be 7251 053e be40 61be d28e d8bd
000002f0: fcd2 8d3d 9179 673c 3ce8 4ebd 4001 06bd
00000300: 15b4 74bd a75b 7fbe f146 823d 180a a1bc
00000310: bc8c 1bbe 7c25 493e bda8 5cbe 98be 2c3e
00000320: 1ec4 c7bd 96de 013e d90e 09be 18b5 0dbe
00000330: b54e ffbe 8f25 933e f43d 85bd 4138 043e
00000340: 7c6d 9ebe 908b 41be 16b4 ae3d 461f f3bd
00000350: 099d 31bd 7a6c ae3e d430 c53d 8814 2abb
00000360: 015c ac3e 7218 bb3c 74ba 63bd a61c 22bf
00000370: 689a 1dbe 18f6 26be fc96 8e3d aa83 4d3e
00000380: bb83 41be c456 6cbd 98ef c8bc a698 61be
00000390: 44d4 9b3d 7c32 923c ecc4 953d 7700 0cbe
000003a0: 63e6 2d3d 64dc 46be 318b ad3c 1ab0 d4bc
000003b0: e878 53bd d0bd 1dbd 0022 7bbe 69bb 0b3e
000003c0: 902a 29be 7e91 66be 26a5 123e 0643 1e3e
000003d0: 26d0 c13c eb5f cdbb 606d 143c 6844 a6bd
000003e0: 21cd 493e 3ec0 c4bc a239 bdbd 50f9 3abe
000003f0: 28d9 0abe b414 26be d321 203e bc6f 2b3e

bias f4 [20]
0.048820645 1.3015208 -0.7428063 -0.25637558 -0.8988547 -0.029052623 -0.10855576 -0.17400047
-1.2654313 0.16818774 -0.07709897 -0.16496901 0.16883287 -0.18648243 -0.23868394 -1.1001585
-2.584633 0.97922957 -0.26895335 1.2087525
00000000: 28f8 473d 3c98 a63f 8e28 3ebf a943 83be
00000010: 571b 66bf c4ff edbc 7b52 debd 2e2d 32be
00000020: a7f9 a1bf 6839 2c3e 11e6 9dbd a3ed 28be
00000030: 86e2 2c3e 40f5 3ebe 9069 74be fed1 8cbf
00000040: a16a 25c0 caae 7a3f 41b4 89be 67b8 9a3f

weight f4 [2, 20]
-0.11263355 -0.8673495 -0.64654714 -0.14642179 -0.29045627 -0.078111924 0.07883371 -0.14977649
-0.287648 0.13530293 0.19649895 0.11749064 0.081307605 0.18686798 -0.17009382 -0.09236811
0.81884664 0.015845252 0.0602923 0.23262583 0.10566151 0.76145756 0.80224156 -0.20227109
0.091164276 -0.075454645 0.07378561 -0.041775938 -0.06827569 0.117515385 -0.42492115 0.09389671
0.15162028 0.16341013 -0.08101207 0.07217406 -0.81597507 -0.08482821 -0.0064560175 -0.29834127
00000000: 6bac e6bd 9e0a 5ebf 1d84 25bf 98ef 15be
00000010: afb6 94be 25f9 9fbd 9173 a13d 025f 19be
00000020: 9946 93be da8c 0a3e 0537 493e ef9e f03d
00000030: 9a84 a63d 525a 3f3e 132d 2ebe 7e2b bdbd
00000040: ef9f 513f e7cd 813c 0ff5 763d 7735 6e3e
00000050: 1065 d83d e2ee 423f b45f 4d3f 2720 4fbe
00000060: 56b4 ba3d f787 9abd e91c 973d 3f1d 2bbd
00000070: 20d4 8bbd e8ab f03d 448f d9be eb4c c03d
00000080: 5942 1b3e fc54 273e a8e9 a5bd fecf 933d
00000090: bee3 50bf 6aba adbd 008d d3bb 30c0 98be

bias f4 [2]
1.0635183 -0.69574004
00000000: 5e21 883f 051c 32bf
